…
model"
________________________________________________________________________________
 Layer (type)             Output Shape      Param #  Connected to               
================================================================================
 static_input_layer (Inpu  [(None, 4)]      0        []                         
 tLayer)                                                                        
 dynamic_input_layer (Inp  [(None, 20, 1)]  0        []                         
 utLayer)                                                                       
 embedding (Embedding)    (None, 4, 32)     1120     ['static_input_layer[0][0]'
                                                     ]                          
 conv_layer (Conv1D)      (None, 18, 12)    48       ['dynamic_input_layer[0][0]
                                                     ']                         
 lambda_embeddings (Lambd  (None, 32)       0        ['embedding[0][0]']        
 a)                                                                             
 lstm_1 (LSTM)            (None, 18, 32)    5760     ['conv_layer[0][0]',       
                                                      'lambda_embeddings[0][0]',
                                                      'lambda_embeddings[0][0]']
 lstm_2 (LSTM)            (None, 32)        8320     ['lstm_1[0][0]']           
 dense (Dense)            (None, 24)        792      ['lstm_2[0][0]']           
 output_layer (Dense)     (None, 1)         25       ['dense[0][0]']            
================================================================================
Total params: 16,065
Trainable params: 16,065
Non-trainable params: 0
________________________________________________________________________________
